best_model_Swell.tflite (tflite, 4260 bytes, 6 tensors)

dense/MatMul_bias f4 [16]
00000000: ead5 393e 7ccc 4ebd 2fdb dabc ee40 93bd
00000010: 9064 173e 2c64 343e 03a6 dabd 0000 0000
00000020: acda 123f 6d18 a43e 3156 99bc 46ee f73d
00000030: f044 223d b4ce 803f 0000 0000 e558 163f
0.18148008 -0.05048798 -0.026715843 -0.07190119 0.14784455 0.17616338 -0.106761955 0.0
0.57364917 0.32049885 -0.018717857 0.12105994 0.039616525 1.0063081 0.0 0.5872939

dense/kernel/transpose f4 [16, 34]
00000000: 4b92 7f3f f0a1 923e 65d0 be3f a3d0 7dbd
00000010: b5f5 57be ca3d 11c0 a4ba 153f d683 4abe
00000020: 7d03 a4bf b7bd 64bc 3442 d13f 7b2a 793f
00000030: 9b29 8e3d c6f7 05bf fbe3 9b3f 5379 11bf
00000040: f585 e73f bae0 c43f b9fe febf ef23 0d3f
00000050: ed11 83be 3620 2c3f 1ba9 193e 5382 c1bf
00000060: 5a8d dabd 426c a43e 121f dfbf 2d6e 723f
00000070: 9037 31bf e3bc c43c 469d 5c3f 2159 34be
00000080: aee8 69bf 740b 843f 8f68 453e 4d97 7dbe
00000090: 6a93 2e3e 4812 ab3d e68a 43bc 2936 babe
000000a0: f28c 8b3e c429 843e e094 6c3e 10da 0c3e
000000b0: e92b 6e3c e3f1 a03d 7a74 bfbe d434 563d
000000c0: bd22 083d b264 2fbe 7a2f 9abe a3b2 94be
000000d0: 512a 33be 90da 90bd 11cc 6ebd 8fb8 7f3d
000000e0: 8c7e 9c3e 46cd a33c 5529 88be cedd bdbe
000000f0: d3b8 83be 1410 9dbe 2872 ab3e 24bb 883c
00000100: e4fb aabe 974a 8fbe 7b20 edbc b802 53be
00000110: 8aad 933e 5a23 43be 8c6b 78be 2e4f 883d
00000120: 49ec 5ebd b649 923e 95b1 76be 9d9b 93be
00000130: f212 203d 84f4 913d 7191 a5be ab9d 5bbe
00000140: b1ea 4a3d 044e 3c3e fe0a 0a3d 93b0 4e3d
00000150: 92dd 8cbe 1a71 bfbc ae08 b2be 5af7 0e3e
00000160: 08ef 8c3e dd40 423e 5bb2 723e 32a4 54bd
00000170: 5d30 183e 132e a1be 2f3b 673e 225e eebd
00000180: d6bc 8fbd d33c 7abe 1fa7 a2be d6b0 893e
00000190: adc4 afbe 4abc f1bd 7c19 103f 6c5f 5d3f
000001a0: 2119 abbf 163a 39bf 8585 86bf 5ec0 0140
000001b0: ab5e bb3f 1806 be3f e6ad 5c3e 145e 33bf
000001c0: 5a1c aebf 04c7 f0bf 9d57 403f 627d 7a3d
000001d0: b2b6 e23e 4649 3bbe da99 ac3e e942 31bd
000001e0: 40d4 e43f 00af f0bf f73a 2d3f 7e65 63be
000001f0: 3926 53bf 7f1f 01be 530e 8e3f 5c6d 2c3e
00000200: c22b 9fbb bdd3 92be 7765 5dbf 59ee 9cbe
00000210: 12fa 80c0 aa44 e33f 49ed 98bf bc38 1e3f
00000220: 48ed 86bf 9aa3 c8be 8a46 c33d f448 37bf
00000230: b479 3ebe 8939 5d40 1fb5 fabe 7270 753f
00000240: 4bdc fabe 2f19 d3be a798 933e da38 10be
00000250: cd6f c23e 8e62 89bd 5619 7d3e 70d8 73bf
00000260: 1083 513e 3e89 1d3e f580 01c0 aa9e babc
00000270: b476 ed3c d0d7 633e 7a29 003f 634b cbbd
00000280: 1bce 88bf 1426 693e 541d 2540 1373 78c0
00000290: c618 2fbf d6a6 c6bd acac 4fc1 aba9 0b40
000002a0: 0fcd a43f 383d e9be 4159 1dbf 028d 6c3f
000002b0: 74d0 003f bbe0 9dbe e9f8 0fbf b32a 833f
000002c0: d0c8 f03e cf8e 1740 361e c53c 033e 82be
000002d0: 8807 213f e164 08bf b81f 49be e33d e43e
000002e0: beb3 ffbf b9cb 193f 88ea 01c0 54dd d9bf
000002f0: 0b4d b0be 20f0 d0bb 5631 fabe 89af 9b3f
00000300: cb37 bbbe cd85 4abf b823 933f 66b7 023f
00000310: 35f7 983f 19d8 683e fda9 ea3c 69be 793f
00000320: b87d a2c0 44e6 abbf defa 0c3f fe18 493f
00000330: 1a6f 2bbf b7c5 703f 08ba 7bbf 4905 debe
00000340: bc4d 8b3d 9610 6040 75da b23e a441 76bf
00000350: 0a2d dabf 96e1 dbbd 38f1 6fbf 7748 803f
00000360: 02b1 6bbe 2785 8cbe 0b74 123e d59a 323f
00000370: c39a 6c3f 653d b83f 2232 60bf 0c0a 433f
00000380: 289c 5fbf f1a2 0240 b78e f3be fe72 a3bf
00000390: 8332 16be 45e0 3f3e ab32 e33f dd2d 403f
000003a0: f355 c8be 127e 8a3f 8ea4 f93f 87d5 8abf
000003b0: a11f 9f3e 8834 843f 60ba 4bbd 301f ec3c
000003c0: ce77 63be 2d86 0cbe 1816 4e3d 74a1 7cbe
000003d0: 481a 8bbe b650 8c3e 4402 be3d 28e0 64bd
000003e0: 6b6c 18be f0ec a73e b864 df3d 7e25 9cbe
000003f0: f3c9 20be b07f b03c 8a1c 50be 66b7 90be
0.998326 0.28639174 1.4907347 -0.06196655 -0.21089824 -2.2693963 0.58487916 -0.19776854
-1.2813565 -0.013961247 1.6348329 0.97330445 0.06941529 -0.523312 1.2178949 -0.5682575
1.8087755 1.5381081 -1.9921485 0.55132955 -0.25599614 0.6723665 0.15005915 -1.5117897
-0.10671492 0.32113844 -1.7431357 0.94699365 -0.69225407 0.02401585 0.8617748 -0.17612125
-0.91370666 1.0315995 0.19278167 -0.24764748 0.17048422 0.08353096 -0.011934971 -0.36369446
0.2725597 0.25813115 0.23103666 0.13755059 0.014536836 0.07858636 -0.37393552 0.052296475
0.033236254 -0.17128256 -0.30114347 -0.2904254 -0.17496611 -0.070729375 -0.05830008 0.06243187
0.30565298 0.019995343 -0.26594034 -0.37083286 -0.25726947 -0.3067633 0.33485532 0.016690798
-0.33395302 -0.27986595 -0.028946152 -0.20606506 0.28843337 -0.19056454 -0.24259776 0.06655727
-0.054424558 0.28571862 -0.2409118 -0.2882966 0.039080568 0.07126716 -0.32337525 -0.21446864
0.049540225 0.18389136 0.03370189 0.050461363 -0.27512795 -0.02336936 -0.34772247 0.13961545
0.27526116 0.18970056 0.2370085 -0.0519144 0.14862199 -0.31480464 0.2258117 -0.11639048
-0.070184395 -0.24437265 -0.31768128 0.26892728 -0.3432974 -0.118034914 0.56288886 0.8647373
-1.3367044 -0.7235426 -1.0509497 2.0273662 1.4638265 1.484561 0.21550712 -0.70065427
-1.3602402 -1.8810735 0.7513369 0.06115473 0.4428001 -0.1828967 0.3371113 -0.0432767
1.7877274 -1.8803406 0.676681 -0.22206685 -0.824802 -0.12609671 1.1098121 0.16838592
-0.0048575113 -0.28677168 -0.8648295 -0.30650595 -4.030526 1.775533 -1.1947414 0.6180532
-1.0541162 -0.39187318 0.09534939 -0.7159569 -0.18601114 3.4566367 -0.4896631 0.958747
-0.48996195 -0.4123015 0.28827402 -0.14084187 0.37975922 -0.06708251 0.24716696 -0.9525213
0.20460153 0.15384385 -2.023496 -0.022780735 0.028987266 0.22250295 0.5006329 -0.09926488
-1.0687898 0.22768432 2.579915 -3.8820236 -0.68397176 -0.0969979 -12.979656 2.1822307
1.2875079 -0.4555452 -0.61464316 0.9240266 0.50318074 -0.30835518 -0.5623918 1.0247406
0.47028208 2.3680913 0.024062257 -0.25437936 0.62902117 -0.5327893 -0.19641006 0.44578466
-1.9976728 0.6007648 -2.0299397 -1.7020669 -0.3443378 -0.0063762814 -0.48865765 1.2162944
-0.36566004 -0.79110414 1.1495275 0.51061094 1.1950442 0.22738685 0.02864551 0.9755617
-5.0778465 -1.3429646 0.5507029 0.7855376 -0.669664 0.9405169 -0.98330736 -0.43363407
0.06801936 3.5010123 0.34932294 -0.9619391 -1.7044995 -0.107363865 -0.93727446 1.0022115
-0.23016742 -0.27445337 0.1430208 0.69767505 0.9242365 1.4393736 -0.87576497 0.76187205
-0.8734765 2.0411952 -0.4756982 -1.2769468 -0.14667706 0.18737896 1.7749838 0.7506998
-0.39128074 1.0819724 1.9503343 -1.0846413 0.31078818 1.0328531 -0.049738288 0.028823465
-0.2221367 -0.13723059 0.05031404 -0.24670964 -0.27168489 0.27405328 0.09277776 -0.055877835
-0.14885108 0.32797956 0.109078825 -0.30497354 -0.15702038 0.021545261 -0.20323387 -0.28264922

dense_1/MatMul_bias f4 [8]
00000000: 87b9 cabf 874c a53f 35f8 323f af2d 11be
00000010: fd71 253f 81e6 0340 4a59 e8bc b9ba ae3f
-1.5837868 1.2913979 0.69909984 -0.14177583 0.6462706 2.0609438 -0.028362889 1.3650733

dense_1/kernel/transpose f4 [8, 16]
00000000: fb8f 683f b7bb 163d afb7 4c3d 6893 fcbe
00000010: 901d 3540 9931 97bf 44d0 f23e e0f2 f93d
00000020: ee3f 2340 3b36 7d3f f907 6ebe bb87 0fc0
00000030: 02ed 063f e14c 3f3f 14c9 ecbe d7c7 01c0
00000040: 8d6b 7dbf c866 ae3e f05f e6bd ada0 67c0
00000050: a6a7 0b40 f43b 563e d14d 0b3f 5c27 b53e
00000060: f105 973f 5b1b 65bf 784a c53e 6812 09c0
00000070: 2893 46be cb46 e63f 5843 053e cf8b d7bf
00000080: b75f 37bf 7f86 523e b869 73be 81b4 033f
00000090: a6a7 b43d 86bd 0240 ecc3 d0be 202d ce3d
000000a0: 5725 23c0 33c6 1cc0 4463 9fbe b84b c63f
000000b0: 69ff f4bf 4706 bd3f e81c 94be 6343 e6bf
000000c0: 727e 3fbe ae0b 98be 5061 b4be b0fc 95be
000000d0: b94d e8bd 53d1 bfbe f97c 16bf d818 cdbe
000000e0: 9b80 1bbe 02e2 1b3e a00a 343d aa9d 2d3e
000000f0: 3cc6 03bf 6c9b cbbc 3044 7bbe 578b bc3e
00000100: 151d 92bf 8dab 74bc 59d7 c43e 7c91 893c
00000110: 36db 2840 b7f1 b2bf 1e78 6abf c006 20be
00000120: 17fe 83be 07d9 53c0 f12f ad3d e824 123d
00000130: fe3d 863f 5b99 3640 8c9c a03e aa25 18c0
00000140: 3b1b ef3f 7ade 493e c4ef ccbe d67f 0ac0
00000150: 6062 10be da88 eb3f 2c00 f03e 2403 dabe
00000160: 0650 b13f c397 143f 27b2 1fbe 1085 9dbf
00000170: 3a1c d3bf 5424 0dbf e06e b3be cf56 b5bf
00000180: 23e2 5abd 0804 063e 90db b0bd 90a6 26be
00000190: 5151 363e e05c cabe 995f a6be 90b8 2cbe
000001a0: 9e30 e7be 0c60 86be 001a 7a3c 3079 83be
000001b0: 8d50 a5bd b11e 93bd c8e2 643e 3f85 343e
000001c0: c6ee 1b40 2451 fd3e 24b3 ae3e 92a4 ebbf
000001d0: a815 0fbf 2f9f 1b40 9bd0 fdbf a851 0dbe
000001e0: 9eb7 9f3e aa1a 1dbf d101 193e 3fb4 64bf
000001f0: 7931 debf ddb6 833f 9ceb bcbe 236f 15c0
0.90844697 0.036800113 0.04997986 -0.49331212 2.8299294 -1.1812011 0.4742452 0.12204528
2.550777 0.98910874 -0.23245229 -2.2426593 0.52705395 0.7472668 -0.4624716 -2.0278223
-0.98992234 0.3406279 -0.112487674 -3.6191819 2.1821074 0.20921308 0.54415613 0.3538159
1.1798688 -0.89494866 0.38533378 -2.1417484 -0.19392073 1.7990354 0.13013971 -1.6839541
-0.71630424 0.20559119 -0.23770797 0.514473 0.08821039 2.0428176 -0.40774477 0.10067201
-2.549154 -2.4495971 -0.3113042 1.5491858 -1.9140445 1.4767541 -0.28928304 -1.7989315
-0.18700579 -0.2969641 -0.35230494 -0.29294348 -0.113429494 -0.3746439 -0.58784443 -0.40058017
-0.15185778 0.15222934 0.043955445 0.16954675 -0.51474357 -0.024854384 -0.2453773 0.36825058
-1.1415125 -0.014933479 0.38445547 0.016793005 2.6383796 -1.3980016 -0.91589534 -0.15627575
-0.25779793 -3.3101213 0.0845641 0.035679728 1.0487669 2.85311 0.31369436 -2.3772988
1.8680185 0.19713774 -0.40026677 -2.1640525 -0.14100027 1.8401139 0.4687513 -0.4258052
1.3852546 0.5804407 -0.15595303 -1.2306232 -1.6492989 -0.5513356 -0.35045528 -1.4167117
-0.053438317 0.13087475 -0.08635628 -0.16274476 0.17804457 -0.39523983 -0.3249481 -0.1686728
-0.4515428 -0.26245153 0.015264988 -0.25678396 -0.080720045 -0.07183588 0.22352135 0.17628954
2.4364486 0.49475968 0.34121048 -1.8409598 -0.5589242 2.4315908 -1.9829286 -0.1380068
0.31194776 -0.6136881 0.14942099 -0.89337534 -1.7358848 1.029018 -0.36898506 -2.3349082

dense_2/MatMul_bias f4 [3]
00000000: 5699 bd3f 4b1c b7c0 0408 c140
1.481242 -5.7222037 6.0322285

dense_2/kernel/transpose f4 [3, 8]
00000000: cbb7 acbe 07a0 fcc0 1673 4bc1 c5fb c43e
00000010: e689 9040 8182 8ec0 432f 453e c0f9 c340
00000020: 33b0 aa40 711f bf3e 3cde f440 1144 8fbe
00000030: cbe5 15bf 4a53 c540 f52f f7bd b875 bbc0
00000040: 44a9 26c1 2c4f ac40 89dd bc3f 7903 e63d
00000050: 9800 4ec1 9893 75c0 0fa6 073f cb7e a13f
-0.33733973 -7.8945346 -12.715597 0.38473335 4.5168333 -4.4534307 0.1925631 6.124237
5.3340087 0.37328675 7.652128 -0.27981618 -0.5855376 6.166417 -0.12069694 -5.85812
-10.416325 5.3846645 1.4755107 0.11231131 -12.875145 -3.8371334 0.5298776 1.2616819
